bike_rental_model.pth (torch, 15980 bytes, 5 tensors)

fc1.weight f4 [64, 18]
00000000: 8c0f 5e3f 3345 0e3e bc2e 90bd 50e2 883e
00000010: de6a 69be c47b b63e 16c0 093e baf6 49bf
00000020: 8438 02bf d198 b6be b2cd 55be 8371 adbe
00000030: 2e19 d0be 1b91 a13e fd64 2dbe b975 1fbf
00000040: d9a0 89be bd6a c63e e502 6a3f 33e8 d43d
00000050: 933e 24be b112 953e bcf0 20bd 268f 7b3c
00000060: fb57 f0bd bb18 29bf b852 27bf 3120 07be
00000070: 2fb5 8fbe 5ae2 613e 0df5 bfbe c125 a73e
00000080: 5fa0 e63d c352 3abf eeed 8fbe 5765 4d3f
00000090: 886e 2e3f 6cbb d03e eb44 10bf 4c6f 843e
000000a0: 9645 423e 2e14 fe3e 8e9b c33b 5b30 49bf
000000b0: 236e d0be 0212 35bf ba58 00bf a9ac 66be
000000c0: 4887 e9be 47d4 ea3e a572 b9bc 4c38 11bf
000000d0: 439e 9f3e 5116 1e3f 6b34 483f 3ac8 553e
000000e0: 428e d13e 2b21 6ebf ef59 193e 018f a43e
000000f0: aaec 20bf 91d7 16bf 1ebe 50bf b963 0fbf
00000100: 4830 ea3e 15ab d7be 3a8c 37be 4b55 9dbe
00000110: 47d8 d43d 8ba0 a5be 230d e43e 2547 093f
00000120: ddec 713f adcf 733e 1a82 94be be24 143e
00000130: 8200 873e 61ae 913e 73da 38bd 45b6 fbbe
00000140: ade6 4ebf 9aff 86be 8d0b ccbe fedc 80be
00000150: d545 fabe 1ca0 c1be 18b9 bb3c 0b3d bfbe
00000160: ef35 a7be d52e 3c3f af46 6a3f be6a 4f3c
00000170: 88f8 efbe 91db 153e 083f 863d 9dd8 1ebe
00000180: dda6 033d 563a 1bbf 1aa0 11bf c067 a3be
00000190: afe9 03bf e1c7 86be 525a 933d a348 e33e
000001a0: b2e4 13bf 71b5 40bf 8a75 2b3f 45e3 5c3f
000001b0: b603 473f a0a5 de3e a39d b0be a2c9 f43d
000001c0: cd31 983e 0b1c a03e 5ad2 363e fff2 04bf
000001d0: 622e 4cbf e876 b7be 85bf adbe b644 413e
000001e0: 0d77 a7be dd8e d03e 945e 7abd 5ae9 cabe
000001f0: 8844 103e 5bd2 513f c1d6 6e3f d9e1 4b3e
00000200: 475f 0fbe fb53 fdbd a99e 09bf f389 c63e
00000210: d7bc 5abe c6c7 42bf f8ba 29bf e26c 48be
00000220: c23d 363b 6232 043f f6d5 1cbf 1cc4 d63e
00000230: e667 a6be 91c1 a0be 669e 03bf 2dbf ef3e
00000240: 9735 6d3f 2a97 46bd 4a78 213e e88d 003e
00000250: 3140 7f3d 13ce d2bd a64e 9ebe 4c85 3cbf
00000260: 2bfa fcbe a747 79bd 8e45 023f 97a7 c0be
00000270: 3313 52bd 0159 79be 5eec f23c be61 27bf
00000280: 6c47 ed3d 339a 253f 1e1f 6a3f cc1a a43c
00000290: ccfc da3e 1481 36bf 78b7 9cbb 1984 e43a
000002a0: b2e6 5fbf d836 32bf bcb1 6cbe a859 013d
000002b0: 8635 0e3f 9a16 18be 1070 8fbe 871d 1ebf
000002c0: ddd4 473e b798 28bf d710 2f3f 0ce1 133f
000002d0: 480f 4f3f db8f cfbd 180f 05bf 2504 9c3e
000002e0: 7064 8bbe 9a20 a0be fcb1 3cbe 8302 25bf
000002f0: 094c 36bf 91ea 47be abab 85be 14ef 503f
00000300: 383c 4ebe 46cc 583d f542 eebd a844 b7be
00000310: bbd6 6c3f 4a4e 163f 714c 393f af0c a83e
00000320: 622f 56be 3a4a 09bf 8f38 543e d522 763e
00000330: a3f4 103e 896f 6cbf c5da 16bf 3f71 73be
00000340: a8c0 e1be 43be f9be edfc e8bc 4176 1abf
00000350: dc2c 5ebe db1b 24bf 962b e63e d4e2 263f
00000360: ba06 803f bba8 7a3e 3768 febe 24b4 823e
00000370: 4859 883e be03 49be a414 b03d 0a31 81bf
00000380: 71c0 32bf f332 1cbf 3412 2cbf c5ed ebbe
00000390: b74c b13d 530e a3bf e093 55be e95c 51be
000003a0: 8f7d 533f cd65 733f e2f5 963f 269a 5d3e
000003b0: f971 37be 9762 08be d745 94be 5798 0d3e
000003c0: a3df 52be efab 69bf 048c 32bf d0c2 ffbe
000003d0: b72d c2be 263d 70be 9d59 d33c 2ea4 90be
000003e0: 3125 dcbc 2ce7 47bf 31b4 623d 48dc 3d3f
000003f0: efa1 3d3f b1aa 49bd c283 21bf 37b1 043e
0.8674247 0.13893585 -0.07040164 0.26735163 -0.22794673 0.356413 0.13452181 -0.788921
-0.50867486 -0.35663465 -0.20879248 -0.33875665 -0.4064421 0.3155602 -0.16933055 -0.62289006
-0.2688053 0.3875331 0.91410667 0.10395851 -0.16039495 0.29115823 -0.039292082 0.0153539535
-0.11735531 -0.6605336 -0.65360594 -0.13195874 -0.2806792 0.22059003 -0.37491646 0.3264599
0.11261057 -0.72782534 -0.28111213 0.8023276 0.6813741 0.40767992 -0.5635516 0.25866163
0.18971857 0.4962477 0.0059694713 -0.7858941 -0.40709028 -0.707306 -0.50135386 -0.22526802
-0.45611024 0.4586508 -0.022637675 -0.5672653 0.31175432 0.617528 0.78204983 0.20877162
0.40928847 -0.9301936 0.14975713 0.32140353 -0.6286112 -0.5892268 -0.81540096 -0.5601154
0.4573996 -0.42122713 -0.17924586 -0.30729136 0.10392814 -0.32349047 0.44541273 0.5362418
0.9450205 0.23809691 -0.2900551 0.14467141 0.26367575 0.28453353 -0.045130204 -0.49162498
-0.80820733 -0.26366884 -0.39852563 -0.25168604 -0.48881403 -0.37817466 0.022915408 -0.3735126
-0.32658336 0.7350896 0.91514105 0.012659727 -0.46869302 0.14634539 0.06554991 -0.15512319
0.032141555 -0.6063589 -0.5688492 -0.31915092 -0.5152845 -0.2632437 0.071949616 0.44391355
-0.57770836 -0.7527686 0.66976225 0.86284286 0.7774004 0.43485737 -0.34495267 0.11952521
0.29725495 0.31271395 0.1785368 -0.5193328 -0.79758275 -0.35832906 -0.3393518 0.18873867
-0.32708016 0.40733996 -0.061125353 -0.39631158 0.14088643 0.819616 0.9329644 0.19910373
-0.14001189 -0.12369534 -0.5375772 0.38777122 -0.21361099 -0.7608608 -0.66300917 -0.19572785
0.0027807807 0.5163938 -0.6126398 0.41946495 -0.32501143 -0.3139768 -0.5141357 0.46825543
0.92659897 -0.048484005 0.15768543 0.12554133 0.062317077 -0.10293212 -0.3091938 -0.73640895
-0.49409613 -0.06085935 0.5088738 -0.3762786 -0.05128784 -0.24350359 0.029653724 -0.6538352
0.11585888 0.64688414 0.9145373 0.020032309 0.42770994 -0.7129071 -0.0047826134 0.0017434388
-0.8746139 -0.69614935 -0.23114675 0.031579643 0.5555042 -0.14852372 -0.28015184 -0.61763805
0.19514795 -0.65858024 0.6838507 0.5776527 0.8088269 -0.1013486 -0.51976156 0.30471912
-0.27225065 -0.31274873 -0.1842727 -0.6445696 -0.7120977 -0.19523074 -0.26107535 0.81614804
-0.20140159 0.052929185 -0.11633865 -0.35794568 0.9251515 0.5871321 0.72382265 0.32822177
-0.20916513 -0.53628886 0.207247 0.24036725 0.14155822 -0.9235769 -0.58927566 -0.23773669
-0.44092298 -0.4877797 -0.028440917 -0.6033669 -0.216968 -0.64105004 0.44955128 0.6518986
1.0002053 0.24478428 -0.49688885 0.2552806 0.26630616 -0.19630334 0.08597687 -1.009309
-0.6982489 -0.6101524 -0.67215276 -0.4607984 0.0865721 -1.2738746 -0.20857191 -0.20445599
0.8261346 0.9507721 1.1793787 0.21640834 -0.17914571 -0.13318859 -0.28959534 0.13827644
-0.20593123 -0.91277975 -0.69744897 -0.49953318 -0.37925503 -0.23460826 0.025799567 -0.2825026
-0.026873203 -0.78087115 0.055347625 0.7416425 0.74075216 -0.04923505 -0.6309167 0.12958227

fc1.bias f4 [64]
00000000: ea6c 173f d55d 053f ea09 143f 2be2 3e3f
00000010: 0f48 c93e f10a 2b3f 853a f03e 1c87 1e3f
00000020: b0c0 383f 09a7 393f 3b76 663f 576a 163f
00000030: 4a0a 4f3f 3179 f33e a19b 613f 71d8 343f
00000040: 2fe4 f93e 754b 143f 4265 823f bb09 323f
00000050: 27e7 373f e2e8 5d3f c0df 4b3f addc 993e
00000060: 9a5d 1f3f 4338 043f 42d0 1a3f 23de 423f
00000070: edb2 f73e eddc 0f3f ce49 3c3f 4086 3f3f
00000080: c589 1c3f 9868 573f 784e 363f 2c96 273f
00000090: 88b0 473f a00b 0e3f 9a79 233f b54f 2c3f
000000a0: e929 353f a0c9 403f c4c7 133f e4f1 123f
000000b0: d611 493f b35f 073f 704c fb3e 1dbf 1d3f
000000c0: 8856 083f 9626 393f f9dd 443f d918 2a3f
000000d0: dd4a ae3e a0ad d93e d85a 583f 3ea5 d43e
000000e0: caeb 543f 15b7 1a3f 233f 133f 84d2 2c3f
000000f0: ce61 213f 62cc 443f 78a5 543f bb32 263f
0.59150565 0.520963 0.5782763 0.74563855 0.3931279 0.6681357 0.46919647 0.6192491
0.7216902 0.725205 0.90024155 0.5875601 0.80875075 0.475534 0.88128096 0.70642763
0.48806903 0.5792764 1.0187151 0.695461 0.71837085 0.86683476 0.7963829 0.30051175
0.622522 0.5164835 0.60474026 0.76120204 0.48378697 0.5619648 0.73550117 0.74814224
0.6114772 0.8414397 0.71213484 0.6546352 0.7800374 0.5548649 0.63857424 0.67309123
0.70767075 0.75307655 0.57726693 0.57400346 0.7854284 0.528804 0.49081755 0.6161974
0.53257036 0.723245 0.76901203 0.66444165 0.3404149 0.42515278 0.84513617 0.4153232
0.83172286 0.6043561 0.57518214 0.6750872 0.63039863 0.76874363 0.83064985 0.6492116

fc2.weight f4 [32, 64]
00000000: 8ede 6f3e 95fd ea3d 7094 533e a334 853e
00000010: c974 49be 15d0 be3c 41f9 26bb 652b c73e
00000020: de9d 67be 2602 963e 0c7a 923e 1a23 1d3e
00000030: 6d56 b7bc 66bc 2abe c142 f7bd 68d4 b13d
00000040: 9061 84bc e612 863d d5f5 98bd 60c9 bd3d
00000050: 38b4 25bd 2da9 2fbc 46e8 d63b f5c2 46bd
00000060: 630a dc3d cc1c 9f3d e83f 213d 8e7d 65be
00000070: ad4b d1bc ff05 ed3c a65f 4b3b 5e6c 04be
00000080: 93e4 ff3d e9b1 0dbd ca26 47be c803 00bd
00000090: 193d 37be 3d95 17bd 6d1e 8e3e 39d1 e6bd
000000a0: 17eb 89be 06b1 7e3d 8d3b ae3d 6389 67be
000000b0: 853a e03d 7dd6 b5bd 6f91 0abd 38e2 8bbe
000000c0: 1516 3cbe cba1 8a3d 7a6b d4bb 8d46 8cbd
000000d0: a57c 00bd 1ebd 3e3c b7f6 5abb 4218 7cbe
000000e0: 2613 b03c b102 583e ba55 00be 1a56 85bc
000000f0: 224f 0bbe fe03 a9bc 463f 5c3d 29d1 cdbc
00000100: 312e 2b3f 0b12 393f 4f0d e13e 5352 1f3f
00000110: c6b9 133f dcfa 103f 80e4 e93e 0f93 4a3f
00000120: 6614 223f b91e 473f 400d 2d3f 51c6 1e3f
00000130: 86b1 f03e f7e1 203f 741a de3e 5adc 223f
00000140: 7456 143f 2497 343f 6303 373f 2f4f 3e3f
00000150: 12c1 283f 7955 8d3f 9c05 283f acad 393f
00000160: 8b6c 423f 1a9f 263f 2923 f33e 3cec 003f
00000170: 2db8 0c3f 4cfd 1f3f 5c47 1e3f 6cc4 113f
00000180: 0d4f 003f 8769 463f 93f9 363f 729a 143f
00000190: 6442 2c3f f2da 113f 922f 573f b89c 303f
000001a0: ba1e 1d3f 0139 1e3f 2dcc 023f 73cf 2e3f
000001b0: bd15 0c3f c858 2d3f 6492 213f 0f0d 243f
000001c0: ee82 093f f9fe 0a3f e9f2 073f 5179 0b3f
000001d0: 7c41 2d3f d4df 003f a9a4 1d3f a945 0f3f
000001e0: 5303 2c3f e297 303f a2c6 193f 16ea 123f
000001f0: ae06 133f 4796 f73e 7927 063f c7a1 393f
00000200: cbcb 163f a93f 303f 2f31 173f afde 323f
00000210: 4b0f 143f 4b16 023f 979c 193f 6241 483f
00000220: 5c72 323f ea6f 173f 8299 2e3f 9597 fc3e
00000230: e731 0f3f 1a45 2e3f a101 223f 88fd 003f
00000240: 8291 073f 0639 433f c203 1b3f d308 1a3f
00000250: d418 333f 3377 6e3f 31cf 2d3f 0e09 2d3f
00000260: 675a 443f 7c4b 2b3f b735 093f 7acd 3b3f
00000270: 57db 193f f406 103f 43b8 003f ffdc 153f
00000280: 8403 273f 3cb8 1b3f c68f 163f a3c4 183f
00000290: 5b17 163f fc23 093f 0994 663f c4f4 1b3f
000002a0: 96f7 283f b3eb 0a3f 7138 333f f38d 333f
000002b0: 43b3 303f cd4e 2e3f e289 1b3f 0657 493f
000002c0: 5385 1b3f c4dc 113f c23e bd3e 497b 293f
000002d0: aaf4 243f 5d77 0e3f 136f 063f fa84 323f
000002e0: 3da5 593f 62d4 4b3f 900e 243f 6ff3 1f3f
000002f0: e8e8 383f 00e4 ec3e 1cff 203f 7f8f 123f
00000300: 9cc0 003f 0e6f 273f a75f ca3e c9ca 113f
00000310: 4e3a 203f 88c8 083f 1119 043f f294 1b3f
00000320: d77c 163f e4e3 273f 71d8 433f 2b5d 003f
00000330: 4dc4 fc3e a9f2 253f e270 d23e 5cc6 033f
00000340: f29e 1d3f 4695 0c3f c4cd 2b3f 69ec 043f
00000350: b07d 0d3f 8ad3 8a3f 75b9 3d3f bb08 2c3f
00000360: 9c92 233f 0739 203f 51e4 f43e f237 353f
00000370: 91e8 063f 5fa4 043f 6562 253f 5aea 133f
00000380: 46d9 113f 2caa 393f 1285 f23e 87a5 233f
00000390: 9479 3a3f 3c0e 043f ba2b 2f3f 1890 323f
000003a0: bf54 0f3f 207d eb3e 1a2e 1a3f 7e36 013f
000003b0: d516 103f 6837 033f d5f5 293f 9cc5 2d3f
000003c0: 84e9 093f 4c49 0b3f e47e fb3e 8194 033f
000003d0: 3722 0f3f 3482 153f 3728 233f 79c6 2a3f
000003e0: 20bf 423f 9a37 3b3f 1981 2a3f 5d2e 023f
000003f0: a9a6 223f 9650 113f db53 053f c9d9 0f3f
0.23424742 0.11474148 0.20662093 0.2601672 -0.19673456 0.02329258 -0.0025478157 0.38900295
-0.22618815 0.29298514 0.2860874 0.15345421 -0.022380078 -0.16673431 -0.12073279 0.086830914
-0.016159803 0.06546573 -0.07468764 0.09266925 -0.040455073 -0.010721487 0.006558451 -0.04852577
0.107441686 0.077691644 0.039367586 -0.22411177 -0.02554878 0.028933523 0.0031032353 -0.12931964
0.12494769 -0.034593496 -0.1944839 -0.031253606 -0.178944 -0.03700756 0.27757588 -0.11270375
-0.26937172 0.06218054 0.08507452 -0.22611003 0.10948662 -0.08878801 -0.033830103 -0.2732103
-0.18367799 0.06769141 -0.0064825388 -0.06849394 -0.03136887 0.011641769 -0.0033411214 -0.24618629
0.021493506 0.21094777 -0.12532702 -0.016276408 -0.13604406 -0.020631786 0.05377128 -0.02512415
0.6686736 0.72293156 0.43955466 0.6223499 0.5770534 0.5663278 0.45682144 0.79130644
0.63312376 0.77781254 0.6759834 0.62021357 0.4701044 0.62844795 0.43379557 0.6361748
0.57944417 0.7054312 0.7148954 0.74339575 0.659196 1.1041709 0.6563356 0.7253063
0.75946873 0.6508652 0.47487763 0.50360465 0.5496853 0.62495875 0.61827636 0.5694034
0.5012062 0.7750477 0.7147457 0.58048165 0.67288804 0.5697471 0.8405696 0.68989134
0.6137501 0.6180573 0.510928 0.6828529 0.5472067 0.67713594 0.63114 0.64082426
0.5371541 0.5429531 0.53105026 0.5448199 0.67678046 0.50341535 0.61579376 0.5596567
0.6719257 0.68981755 0.60068715 0.57388437 0.5743207 0.4835684 0.5240398 0.7251248
0.58904713 0.6884714 0.59059423 0.6987104 0.57835835 0.50815266 0.6000456 0.78224766
0.6970575 0.5915514 0.68202984 0.49334398 0.5593552 0.6807419 0.63283736 0.5038686
0.529564 0.76258886 0.6055261 0.60169715 0.6995976 0.93150634 0.67894274 0.6759194
0.76700443 0.66912055 0.5359759 0.7336041 0.6010031 0.5626061 0.5028116 0.5854034
0.6523974 0.60827994 0.5881313 0.59675044 0.5862939 0.5357053 0.90069634 0.6092036
0.66002786 0.542659 0.70008 0.7013847 0.6902353 0.6808899 0.6075727 0.7864841
0.6075031 0.56977487 0.36961943 0.66203743 0.6443583 0.55650884 0.52513236 0.69734156
0.8501776 0.79620945 0.6408472 0.62480825 0.72230387 0.462677 0.62889266 0.5725021
0.502939 0.6540383 0.39526102 0.5695005 0.62588966 0.53430986 0.5160075 0.6077415
0.5878424 0.6558211 0.7650214 0.50142163 0.49368516 0.64823395 0.41101748 0.5147455
0.61570656 0.54915273 0.6711085 0.51923233 0.5526991 1.0845807 0.7411111 0.6720082
0.63895583 0.62587017 0.47830442 0.7078849 0.5269862 0.5181331 0.64603263 0.5777947
0.5697216 0.72525287 0.4736715 0.6392445 0.72841763 0.5158422 0.68426096 0.6975112
0.5598869 0.459939 0.60226595 0.50473773 0.5628484 0.5125642 0.66390735 0.6787965
0.5387194 0.5440872 0.49120247 0.51398474 0.5591158 0.584018 0.6373324 0.66709095
0.76072884 0.73131716 0.6660324 0.50851995 0.63535553 0.5676359 0.5208108 0.5619169

fc2.bias f4 [32]
00000000: e8ce 5b3d 9bce f73e 305a 113f fe99 d63e
00000010: 486a 1a3f adad 123f e544 183f 11e5 96bd
00000020: 4f3f 193f 9072 183f dbc5 623f b649 f73e
00000030: 4cbc e23e 72c3 183d 9b72 173f 54ed 563f
00000040: f0c0 ff3c 6d52 d33e 4b1f 823f 730a f93e
00000050: 70f2 46bd e202 cb3e 8d7d 803d b3b8 073f
00000060: 8d3b 273d a03f ec3e 6335 163f 8b8e 1e3f
00000070: 7cf3 af3e 5757 babd 8126 2fbd a761 fb3e
0.053664118 0.48399815 0.5677824 0.41914362 0.6031842 0.5729626 0.59480125 -0.0736791
0.59862226 0.5954981 0.88583153 0.48298424 0.44284284 0.037295766 0.5915925 0.83955884
0.03121993 0.41273823 1.01658 0.48640785 -0.04857105 0.39650637 0.06273947 0.53016204
0.040828276 0.46142292 0.5867521 0.61936253 0.3436545 -0.0909869 -0.04276133 0.4909794

fc3.weight f4 [1, 32]
00000000: 9e4e aebe 0911 333f 4965 2e3f 2103 443f
00000010: 0273 4c3f a867 303f 04c7 313f 6fd8 b7bd
00000020: 7c63 323f 479c 343f c3c4 babf 78c7 293f
00000030: b56c 4e3f 5b71 e5bd fc46 3f3f f015 e3bf
00000040: dbdb f7bc f16b 3a3f d924 afbf a09d 2e3f
00000050: 66fa afbd 1935 4c3f 70fe 4ebe 456e 363f
00000060: f511 aabb 8dd7 263f fb70 2b3f cc06 403f
00000070: c9a8 67bf 0863 8abd fd2e f6bd ef82 2e3f
-0.34044355 0.6994787 0.681233 0.76567274 0.7986299 0.68908167 0.694443 -0.08976828
0.6968305 0.7055096 -1.4591297 0.6631999 0.80634624 -0.112032615 0.7471769 -1.774107
-0.030256202 0.72820956 -1.368312 0.68209267 -0.085926816 0.7976852 -0.20214248 0.7126201
-0.005190129 0.65172654 0.6696927 0.7501037 -0.9049192 -0.0675717 -0.12020681 0.6816854
